…
I20260526 20:30:36 3000143 dinov3 vision_transformer.py:137] using mlp layer as FFN
I20260526 20:30:36 3000143 dinov3 __init__.py:25] fp8 matmuls: OFF (disabled in config)
I20260526 20:30:36 3000143 dinov3 ac_compile_parallelize.py:168] DISTRIBUTED FSDP -- preparing model for distributed training
I20260526 20:30:36 3000143 dinov3 ac_compile_parallelize.py:46] using selective checkpointing on backbone with selective policy
I20260526 20:30:37 3000143 dinov3 train.py:695] Model after distributed:
FeatureDistillationMetaArch(
  (student): ModuleDict(
    (backbone): FSDPSwinTransformer(
      (patch_embed): PatchEmbed(
        (proj): Conv2d(3, 128, kernel_size=(4, 4), stride=(4, 4))
        (norm): LayerNorm((128,), eps=1e-06, elementwise_affine=True)
      )
      (pos_drop): Dropout(p=0.0, inplace=False)
      (layers): ModuleList(
        (0): FSDPCheckpointWrapper(
          (_checkpoint_wrapped_module): BasicLayer(
            dim=128, input_resolution=(16, 16), depth=2
            (blocks): ModuleList(
              (0): SwinTransformerBlock(
                dim=128, input_resolution=(16, 16), num_heads=4, window_size=7, shift_size=0 mlp_ratio=4
                (norm1): LayerNorm((128,), eps=1e-06, elementwise_affine=True)
                (attn): WindowAttention(
                  dim=128, window_size=(7, 7), num_heads=4
                  (qkv): Linear(in_features=128, out_features=384, bias=True)
                  (attn_drop): Dropout(p=0.0, inplace=False)
                  (proj): Linear(in_features=128, out_features=128, bias=True)
                  (proj_drop): Dropout(p=0.0, inplace=False)
                  (softmax): Softmax(dim=-1)
                )
                (drop_path): Identity()
                (norm2): LayerNorm((128,), eps=1e-06, elementwise_affine=True)
                (mlp): Mlp(
                  (fc1): Linear(in_features=128, out_features=512, bias=True)
                  (act): GELU(approximate='none')
                  (fc2): Linear(in_features=512, out_features=128, bias=True)
                  (drop): Dropout(p=0.0, inplace=False)
                )
              )
              (1): SwinTransformerBlock(
                dim=128, input_resolution=(16, 16), num_heads=4, window_size=7, shift_size=3 mlp_ratio=4
                (norm1): LayerNorm((128,), eps=1e-06, elementwise_affine=True)
                (attn): WindowAttention(
                  dim=128, window_size=(7, 7), num_heads=4
                  (qkv): Linear(in_features=128, out_features=384, bias=True)
                  (attn_drop): Dropout(p=0.0, inplace=False)
                  (proj): Linear(in_features=128, out_features=128, bias=True)
                  (proj_drop): Dropout(p=0.0, inplace=False)
                  (softmax): Softmax(dim=-1)
                )
                (drop_path): DropPath(drop_prob=0.009)
                (norm2): LayerNorm((128,), eps=1e-06, elementwise_affine=True)
                (mlp): Mlp(
                  (fc1): Linear(in_features=128, out_features=512, bias=True)
                  (act): GELU(approximate='none')
                  (fc2): Linear(in_features=512, out_features=128, bias=True)
                  (drop): Dropout(p=0.0, inplace=False)
                )
              )
            )
            (downsample): PatchMerging(
              (reduction): Linear(in_features=512, out_features=256, bias=False)
              (norm): LayerNorm((512,), eps=1e-06, elementwise_affine=True)
            )
          )
        )
        (1): FSDPCheckpointWrapper(
          (_checkpoint_wrapped_module): BasicLayer(
            dim=256, input_resolution=(8, 8), depth=2
            (blocks): ModuleList(
              (0): SwinTransformerBlock(
                dim=256, input_resolution=(8, 8), num_heads=8, window_size=7, shift_size=0 mlp_ratio=4
                (norm1): LayerNorm((256,), eps=1e-06, elementwise_affine=True)
                (attn): WindowAttention(
                  dim=256, window_size=(7, 7), num_heads=8
                  (qkv): Linear(in_features=256, out_features=768, bias=True)
                  (attn_drop): Dropout(p=0.0, inplace=False)
                  (proj): Linear(in_features=256, out_features=256, bias=True)
                  (proj_drop): Dropout(p=0.0, inplace=False)
                  (softmax): Softmax(dim=-1)
                )
                (drop_path): DropPath(drop_prob=0.017)
                (norm2): LayerNorm((256,), eps=1e-06, elementwise_affine=True)
                (mlp): Mlp(
                  (fc1): Linear(in_features=256, out_features=1024, bias=True)
                  (act): GELU(approximate='none')
                  (fc2): Linear(in_features=1024, out_features=256, bias=True)
                  (drop): Dropout(p=0.0, inplace=False)
                )
              )
              (1): SwinTransformerBlock(
                dim=256, input_resolution=(8, 8), num_heads=8, window_size=7, shift_size=3 mlp_ratio=4
                (norm1): LayerNorm((256,), eps=1e-06, elementwise_affine=True)
                (attn): WindowAttention(
                  dim=256, window_size=(7, 7), num_heads=8
                  (qkv): Linear(in_features=256, out_features=768, bias=True)
                  (attn_drop): Dropout(p=0.0, inplace=False)
                  (proj): Linear(in_features=256, out_features=256, bias=True)
                  (proj_drop): Dropout(p=0.0, inplace=False)
                  (softmax): Softmax(dim=-1)
                )
                (drop_path): DropPath(drop_prob=0.026)
                (norm2): LayerNorm((256,), eps=1e-06, elementwise_affine=True)
                (mlp): Mlp(
                  (fc1): Linear(in_features=256, out_features=1024, bias=True)
                  (act): GELU(approximate='none')
                  (fc2): Linear(in_features=1024, out_features=256, bias=True)
                  (drop): Dropout(p=0.0, inplace=False)
                )
              )
            )
            (downsample): PatchMerging(
              (reduction): Linear(in_features=1024, out_features=512, bias=False)
              (norm): LayerNorm((1024,), eps=1e-06, elementwise_affine=True)
            )
          )
        )
        (2): FSDPCheckpointWrapper(
          (_checkpoint_wrapped_module): BasicLayer(
            dim=512, input_resolution=(4, 4), depth=18
            (blocks): ModuleList(
              (0): SwinTransformerBlock(
                dim=512, input_resolution=(4, 4), num_heads=16, window_size=4, shift_size=0 mlp_ratio=4
                (norm1): LayerNorm((512,), eps=1e-06, elementwise_affine=True)
                (attn): WindowAttention(
                  dim=512, window_size=(4, 4), num_heads=16
                  (qkv): Linear(in_features=512, out_features=1536, bias=True)
                  (attn_drop): Dropout(p=0.0, inplace=False)
                  (proj): Linear(in_features=512, out_features=512, bias=True)
                  (proj_drop): Dropout(p=0.0, inplace=False)
                  (softmax): Softmax(dim=-1)
                )
                (drop_path): DropPath(drop_prob=0.035)
                (norm2): LayerNorm((512,), eps=1e-06, elementwise_affine=True)
                (mlp): Mlp(
                  (fc1): Linear(in_features=512, out_features=2048, bias=True)
                  (act): GELU(approximate='none')
                  (fc2): Linear(in_features=2048, out_features=512, bias=True)
                  (drop): Dropout(p=0.0, inplace=False)
                )
              )
              (1): SwinTransformerBlock(
                dim=512, input_resolution=(4, 4), num_heads=16, window_size=4, shift_size=0 mlp_ratio=4
                (norm1): LayerNorm((512,), eps=1e-06, elementwise_affine=True)
                (attn): WindowAttention(
                  dim=512, window_size=(4, 4), num_heads=16
                  (qkv): Linear(in_features=512, out_features=1536, bias=True)
                  (attn_drop): Dropout(p=0.0, inplace=False)
                  (proj): Linear(in_features=512, out_features=512, bias=True)
                  (proj_drop): Dropout(p=0.0, inplace=False)
                  (softmax): Softmax(dim=-1)
                )
                (drop_path): DropPath(drop_prob=0.043)
                (norm2): LayerNorm((512,), eps=1e-06, elementwise_affine=True)
                (mlp): Mlp(
                  (fc1): Linear(in_features=512, out_features=2048, bias=True)
                  (act): GELU(approximate='none')
                  (fc2): Linear(in_features=2048, out_features=512, bias=True)
                  (drop): Dropout(p=0.0, inplace=False)
                )
              )
              (2): SwinTransformerBlock(
                dim=512, input_resolution=(4, 4), num_heads=16, window_size=4, shift_size=0 mlp_ratio=4
                (norm1): LayerNorm((512,), eps=1e-06, elementwise_affine=True)
                (attn): WindowAttention(
                  dim=512, window_size=(4, 4), num_heads=16
                  (qkv): Linear(in_features=512, out_features=1536, bias=True)
                  (attn_drop): Dropout(p=0.0, inplace=False)
                  (proj): Linear(in_features=512, out_features=512, bias=True)
                  (proj_drop): Dropout(p=0.0, inplace=False)
                  (softmax): Softmax(dim=-1)
                )
                (drop_path): DropPath(drop_prob=0.052)
                (norm2): LayerNorm((512,), eps=1e-06, elementwise_affine=True)
                (mlp): Mlp(
                  (fc1): Linear(in_features=512, out_features=2048, bias=True)
                  (act): GELU(approximate='none')
                  (fc2): Linear(in_features=2048, out_features=512, bias=True)
                  (drop): Dropout(p=0.0, inplace=False)
                )
              )
              (3): SwinTransformerBlock(
                dim=512, input_resolution=(4, 4), num_heads=16, window_size=4, shift_size=0 mlp_ratio=4
                (norm1): LayerNorm((512,), eps=1e-06, elementwise_affine=True)
                (attn): WindowAttention(
                  dim=512, window_size=(4, 4), num_heads=16
                  (qkv): Linear(in_features=512, out_features=1536, bias=True)
                  (attn_drop): Dropout(p=0.0, inplace=False)
                  (proj): Linear(in_features=512, out_features=512, bias=True)
                  (proj_drop): Dropout(p=0.0, inplace=False)
                  (softmax): Softmax(dim=-1)
                )
                (drop_path): DropPath(drop_prob=0.061)
                (norm2): LayerNorm((512,), eps=1e-06, elementwise_affine=True)
                (mlp): Mlp(
                  (fc1): Linear(in_features=512, out_features=2048, bias=True)
                  (act): GELU(approximate='none')
                  (fc2): Linear(in_features=2048, out_features=512, bias=True)
                  (drop): Dropout(p=0.0, inplace=False)
                )
              )
              (4): SwinTransformerBlock(
                dim=512, input_resolution=(4, 4), num_heads=16, window_size=4, shift_size=0 mlp_ratio=4
                (norm1): LayerNorm((512,), eps=1e-06, elementwise_affine=True)
                (attn): WindowAttention(
                  dim=512, window_size=(4, 4), num_heads=16
                  (qkv): Linear(in_features=512, out_features=1536, bias=True)
                  (attn_drop): Dropout(p=0.0, inplace=False)
                  (proj): Linear(in_features=512, out_features=512, bias=True)
                  (proj_drop): Dropout(p=0.0, inplace=False)
                  (softmax): Softmax(dim=-1)
                )
                (drop_path): DropPath(drop_prob=0.070)
                (norm2): LayerNorm((512,), eps=1e-06, elementwise_affine=True)
                (mlp): Mlp(
                  (fc1): Linear(in_features=512, out_features=2048, bias=True)
                  (act): GELU(approximate='none')
                  (fc2): Linear(in_features=2048, out_features=512, bias=True)
                  (drop): Dropout(p=0.0, inplace=False)
                )
              )
              (5): SwinTransformerBlock(
                dim=512, input_resolution=(4, 4), num_heads=16, window_size=4, shift_size=0 mlp_ratio=4
                (norm1): LayerNorm((512,), eps=1e-06, elementwise_affine=True)
                (attn): WindowAttention(
                  dim=512, window_size=(4, 4), num_heads=16
                  (qkv): Linear(in_features=512, out_features=1536, bias=True)
                  (attn_drop): Dropout(p=0.0, inplace=False)
                  (proj): Linear(in_features=512, out_features=512, bias=True)
                  (proj_drop): Dropout(p=0.0, inplace=False)
                  (softmax): Softmax(dim=-1)
                )
                (drop_path): DropPath(drop_prob=0.078)
                (norm2): LayerNorm((512,), eps=1e-06, elementwise_affine=True)
                (mlp): Mlp(
                  (fc1): Linear(in_features=512, out_features=2048, bias=True)
                  (act): GELU(approximate='none')
                  (fc2): Linear(in_features=2048, out_features=512, bias=True)
                  (drop): Dropout(p=0.0, inplace=False)
                )
              )
              (6): SwinTransformerBlock(
                dim=512, input_resolution=(4, 4), num_heads=16, window_size=4, shift_size=0 mlp_ratio=4
                (norm1): LayerNorm((512,), eps=1e-06, elementwise_affine=True)
                (attn): WindowAttention(
                  dim=512, window_size=(4, 4), num_heads=16
                  (qkv): Linear(in_features=512, out_features=1536, bias=True)
                  (attn_drop): Dropout(p=0.0, inplace=False)
                  (proj): Linear(in_features=512, out_features=512, bias=True)
                  (proj_drop): Dropout(p=0.0, inplace=False)
                  (softmax): Softmax(dim=-1)
                )
                (drop_path): DropPath(drop_prob=0.087)
                (norm2): LayerNorm((512,), eps=1e-06, elementwise_affine=True)
                (mlp): Mlp(
                  (fc1): Linear(in_features=512, out_features=2048, bias=True)
                  (act): GELU(approximate='none')
                  (fc2): Linear(in_features=2048, out_features=512, bias=True)
                  (drop): Dropout(p=0.0, inplace=False)
                )
              )
              (7): SwinTransformerBlock(
                dim=512, input_resolution=(4, 4), num_heads=16, window_size=4, shift_size=0 mlp_ratio=4
                (norm1): LayerNorm((512,), eps=1e-06, elementwise_affine=True)
                (attn): WindowAttention(
                  dim=512, window_size=(4, 4), num_heads=16
                  (qkv): Linear(in_features=512, out_features=1536, bias=True)
                  (attn_drop): Dropout(p=0.0, inplace=False)
                  (proj): Linear(in_features=512, out_features=512, bias=True)
                  (proj_drop): Dropout(p=0.0, inplace=False)
                  (softmax): Softmax(dim=-1)
                )
                (drop_path): DropPath(drop_prob=0.096)
                (norm2): LayerNorm((512,), eps=1e-06, elementwise_affine=True)
                (mlp): Mlp(
                  (fc1): Linear(in_features=512, out_features=2048, bias=True)
                  (act): GELU(approximate='none')
                  (fc2): Linear(in_features=2048, out_features=512, bias=True)
                  (drop): Dropout(p=0.0, inplace=False)
                )
              )
              (8): SwinTransformerBlock(
                dim=512, input_resolution=(4, 4), num_heads=16, window_size=4, shift_size=0 mlp_ratio=4
                (norm1): LayerNorm((512,), eps=1e-06, elementwise_affine=True)
                (attn): WindowAttention(
                  dim=512, window_size=(4, 4), num_heads=16
                  (qkv): Linear(in_features=512, out_features=1536, bias=True)
                  (attn_drop): Dropout(p=0.0, inplace=False)
                  (proj): Linear(in_features=512, out_features=512, bias=True)
                  (proj_drop): Dropout(p=0.0, inplace=False)
                  (softmax): Softmax(dim=-1)
                )
                (drop_path): DropPath(drop_prob=0.104)
                (norm2): LayerNorm((512,), eps=1e-06, elementwise_affine=True)
                (mlp): Mlp(
                  (fc1): Linear(in_features=512, out_features=2048, bias=True)
                  (act): GELU(approximate='none')
                  (fc2): Linear(in_features=2048, out_features=512, bias=True)
                  (drop): Dropout(p=0.0, inplace=False)
                )
              )
              (9): SwinTransformerBlock(
                dim=512, input_resolution=(4, 4), num_heads=16, window_size=4, shift_size=0 mlp_ratio=4
                (norm1): LayerNorm((512,), eps=1e-06, elementwise_affine=True)
                (attn): WindowAttention(
                  dim=512, window_size=(4, 4), num_heads=16
                  (qkv): Linear(in_features=512, out_features=1536, bias=True)
                  (attn_drop): Dropout(p=0.0, inplace=False)
                  (proj): Linear(in_features=512, out_features=512, bias=True)
                  (proj_drop): Dropout(p=0.0, inplace=False)
                  (softmax): Softmax(dim=-1)
                )
                (drop_path): DropPath(drop_prob=0.113)
                (norm2): LayerNorm((512,), eps=1e-06, elementwise_affine=True)
                (mlp): Mlp(
                  (fc1): Linear(in_features=512, out_features=2048, bias=True)
                  (act): GELU(approximate='none')
                  (fc2): Linear(in_features=2048, out_features=512, bias=True)
                  (drop): Dropout(p=0.0, inplace=False)
                )
              )
              (10): SwinTransformerBlock(
                dim=512, input_resolution=(4, 4), num_heads=16, window_size=4, shift_size=0 mlp_ratio=4
                (norm1): LayerNorm((512,), eps=1e-06, elementwise_affine=True)
                (attn): WindowAttention(
                  dim=512, window_size=(4, 4), num_heads=16
                  (qkv): Linear(in_features=512, out_features=1536, bias=True)
                  (attn_drop): Dropout(p=0.0, inplace=False)
                  (proj): Linear(in_features=512, out_features=512, bias=True)
                  (proj_drop): Dropout(p=0.0, inplace=False)
                  (softmax): Softmax(dim=-1)
                )
                (drop_path): DropPath(drop_prob=0.122)
                (norm2): LayerNorm((512,), eps=1e-06, elementwise_affine=True)
                (mlp): Mlp(
                  (fc1): Linear(in_features=512, out_features=2048, bias=True)
                  (act): GELU(approximate='none')
                  (fc2): Linear(in_features=2048, out_features=512, bias=True)
                  (drop): Dropout(p=0.0, inplace=False)
                )
              )
              (11): SwinTransformerBlock(
                dim=512, input_resolution=(4, 4), num_heads=16, window_size=4, shift_size=0 mlp_ratio=4
                (norm1): LayerNorm((512,), eps=1e-06, elementwise_affine=True)
                (attn): WindowAttention(
                  dim=512, window_size=(4, 4), num_heads=16
                  (qkv): Linear(in_features=512, out_features=1536, bias=True)
                  (attn_drop): Dropout(p=0.0, inplace=False)
                  (proj): Linear(in_features=512, out_features=512, bias=True)
                  (proj_drop): Dropout(p=0.0, inplace=False)
                  (softmax): Softmax(dim=-1)
                )
                (drop_path): DropPath(drop_prob=0.130)
                (norm2): LayerNorm((512,), eps=1e-06, elementwise_affine=True)
                (mlp): Mlp(
                  (fc1): Linear(in_features=512, out_features=2048, bias=True)
                  (act): GELU(approximate='none')
                  (fc2): Linear(in_features=2048, out_features=512, bias=True)
                  (drop): Dropout(p=0.0, inplace=False)
                )
              )
              (12): SwinTransformerBlock(
                dim=512, input_resolution=(4, 4), num_heads=16, window_size=4, shift_size=0 mlp_ratio=4
                (norm1): LayerNorm((512,), eps=1e-06, elementwise_affine=True)
                (attn): WindowAttention(
                  dim=512, window_size=(4, 4), num_heads=16
                  (qkv): Linear(in_features=512, out_features=1536, bias=True)
                  (attn_drop): Dropout(p=0.0, inplace=False)
                  (proj): Linear(in_features=512, out_features=512, bias=True)
                  (proj_drop): Dropout(p=0.0, inplace=False)
                  (softmax): Softmax(dim=-1)
                )
                (drop_path): DropPath(drop_prob=0.139)
                (norm2): LayerNorm((512,), eps=1e-06, elementwise_affine=True)
                (mlp): Mlp(
                  (fc1): Linear(in_features=512, out_features=2048, bias=True)
                  (act): GELU(approximate='none')
                  (fc2): Linear(in_features=2048, out_features=512, bias=True)
                  (drop): Dropout(p=0.0, inplace=False)
                )
              )
              (13): SwinTransformerBlock(
                dim=512, input_resolution=(4, 4), num_heads=16, window_size=4, shift_size=0 mlp_ratio=4
                (norm1): LayerNorm((512,), eps=1e-06, elementwise_affine=True)
                (attn): WindowAttention(
                  dim=512, window_size=(4, 4), num_heads=16
                  (qkv): Linear(in_features=512, out_features=1536, bias=True)
                  (attn_drop): Dropout(p=0.0, inplace=False)
                  (proj): Linear(in_features=512, out_features=512, bias=True)
                  (proj_drop): Dropout(p=0.0, inplace=False)
                  (softmax): Softmax(dim=-1)
                )
                (drop_path): DropPath(drop_prob=0.148)
                (norm2): LayerNorm((512,), eps=1e-06, elementwise_affine=True)
                (mlp): Mlp(
                  (fc1): Linear(in_features=512, out_features=2048, bias=True)
                  (act): GELU(approximate='none')
                  (fc2): Linear(in_features=2048, out_features=512, bias=True)
                  (drop): Dropout(p=0.0, inplace=False)
                )
              )
              (14): SwinTransformerBlock(
                dim=512, input_resolution=(4, 4), num_heads=16, window_size=4, shift_size=0 mlp_ratio=4
                (norm1): LayerNorm((512,), eps=1e-06, elementwise_affine=True)
                (attn): WindowAttention(
                  dim=512, window_size=(4, 4), num_heads=16
                  (qkv): Linear(in_features=512, out_features=1536, bias=True)
                  (attn_drop): Dropout(p=0.0, inplace=False)
                  (proj): Linear(in_features=512, out_features=512, bias=True)
                  (proj_drop): Dropout(p=0.0, inplace=False)
                  (softmax): Softmax(dim=-1)
                )
                (drop_path): DropPath(drop_prob=0.157)
                (norm2): LayerNorm((512,), eps=1e-06, elementwise_affine=True)
                (mlp): Mlp(
                  (fc1): Linear(in_features=512, out_features=2048, bias=True)
                  (act): GELU(approximate='none')
                  (fc2): Linear(in_features=2048, out_features=512, bias=True)
                  (drop): Dropout(p=0.0, inplace=False)
                )
              )
              (15): SwinTransformerBlock(
                dim=512, input_resolution=(4, 4), num_heads=16, window_size=4, shift_size=0 mlp_ratio=4
                (norm1): LayerNorm((512,), eps=1e-06, elementwise_affine=True)
                (attn): WindowAttention(
                  dim=512, window_size=(4, 4), num_heads=16
                  (qkv): Linear(in_features=512, out_features=1536, bias=True)
                  (attn_drop): Dropout(p=0.0, inplace=False)
                  (proj): Linear(in_features=512, out_features=512, bias=True)
                  (proj_drop): Dropout(p=0.0, inplace=False)
                  (softmax): Softmax(dim=-1)
                )
                (drop_path): DropPath(drop_prob=0.165)
                (norm2): LayerNorm((512,), eps=1e-06, elementwise_affine=True)
                (mlp): Mlp(
                  (fc1): Linear(in_features=512, out_features=2048, bias=True)
                  (act): GELU(approximate='none')
                  (fc2): Linear(in_features=2048, out_features=512, bias=True)
                  (drop): Dropout(p=0.0, inplace=False)
                )
              )
              (16): SwinTransformerBlock(
                dim=512, input_resolution=(4, 4), num_heads=16, window_size=4, shift_size=0 mlp_ratio=4
                (norm1): LayerNorm((512,), eps=1e-06, elementwise_affine=True)
                (attn): WindowAttention(
                  dim=512, window_size=(4, 4), num_heads=16
                  (qkv): Linear(in_features=512, out_features=1536, bias=True)
                  (attn_drop): Dropout(p=0.0, inplace=False)
                  (proj): Linear(in_features=512, out_features=512, bias=True)
                  (proj_drop): Dropout(p=0.0, inplace=False)
                  (softmax): Softmax(dim=-1)
                )
                (drop_path): DropPath(drop_prob=0.174)
                (norm2): LayerNorm((512,), eps=1e-06, elementwise_affine=True)
                (mlp): Mlp(
                  (fc1): Linear(in_features=512, out_features=2048, bias=True)
                  (act): GELU(approximate='none')
                  (fc2): Linear(in_features=2048, out_features=512, bias=True)
                  (drop): Dropout(p=0.0, inplace=False)
                )
              )
              (17): SwinTransformerBlock(
                dim=512, input_resolution=(4, 4), num_heads=16, window_size=4, shift_size=0 mlp_ratio=4
                (norm1): LayerNorm((512,), eps=1e-06, elementwise_affine=True)
                (attn): WindowAttention(
                  dim=512, window_size=(4, 4), num_heads=16
                  (qkv): Linear(in_features=512, out_features=1536, bias=True)
                  (attn_drop): Dropout(p=0.0, inplace=False)
                  (proj): Linear(in_features=512, out_features=512, bias=True)
                  (proj_drop): Dropout(p=0.0, inplace=False)
                  (softmax): Softmax(dim=-1)
                )
                (drop_path): DropPath(drop_prob=0.183)
                (norm2): LayerNorm((512,), eps=1e-06, elementwise_affine=True)
                (mlp): Mlp(
                  (fc1): Linear(in_features=512, out_features=2048, bias=True)
                  (act): GELU(approximate='none')
                  (fc2): Linear(in_features=2048, out_features=512, bias=True)
                  (drop): Dropout(p=0.0, inplace=False)
                )
              )
            )
            (downsample): PatchMerging(
              (reduction): Linear(in_features=2048, out_features=1024, bias=False)
              (norm): LayerNorm((2048,), eps=1e-06, elementwise_affine=True)
            )
          )
        )
        (3): FSDPCheckpointWrapper(
          (_checkpoint_wrapped_module): BasicLayer(
            dim=1024, input_resolution=(2, 2), depth=2
            (blocks): ModuleList(
              (0): SwinTransformerBlock(
                dim=1024, input_resolution=(2, 2), num_heads=32, window_size=2, shift_size=0 mlp_ratio=4
                (norm1): LayerNorm((1024,), eps=1e-06, elementwise_affine=True)
                (attn): WindowAttention(
                  dim=1024, window_size=(2, 2), num_heads=32
                  (qkv): Linear(in_features=1024, out_features=3072, bias=True)
                  (attn_drop): Dropout(p=0.0, inplace=False)
                  (proj): Linear(in_features=1024, out_features=1024, bias=True)
                  (proj_drop): Dropout(p=0.0, inplace=False)
                  (softmax): Softmax(dim=-1)
                )
                (drop_path): DropPath(drop_prob=0.191)
                (norm2): LayerNorm((1024,), eps=1e-06, elementwise_affine=True)
                (mlp): Mlp(
                  (fc1): Linear(in_features=1024, out_features=4096, bias=True)
                  (act): GELU(approximate='none')
                  (fc2): Linear(in_features=4096, out_features=1024, bias=True)
                  (drop): Dropout(p=0.0, inplace=False)
                )
              )
              (1): SwinTransformerBlock(
                dim=1024, input_resolution=(2, 2), num_heads=32, window_size=2, shift_size=0 mlp_ratio=4
                (norm1): LayerNorm((1024,), eps=1e-06, elementwise_affine=True)
                (attn): WindowAttention(
                  dim=1024, window_size=(2, 2), num_heads=32
                  (qkv): Linear(in_features=1024, out_features=3072, bias=True)
                  (attn_drop): Dropout(p=0.0, inplace=False)
                  (proj): Linear(in_features=1024, out_features=1024, bias=True)
                  (proj_drop): Dropout(p=0.0, inplace=False)
                  (softmax): Softmax(dim=-1)
                )
                (drop_path): DropPath(drop_prob=0.200)
                (norm2): LayerNorm((1024,), eps=1e-06, elementwise_affine=True)
                (mlp): Mlp(
                  (fc1): Linear(in_features=1024, out_features=4096, bias=True)
                  (act): GELU(approximate='none')
                  (fc2): Linear(in_features=4096, out_features=1024, bias=True)
                  (drop): Dropout(p=0.0, inplace=False)
                )
              )
            )
          )
        )
      )
      (norm): LayerNorm((1024,), eps=1e-06, elementwise_affine=True)
      (avgpool): AdaptiveAvgPool1d(output_size=1)
      (proj_cls): Linear(in_features=1024, out_features=1024, bias=True)
      (cls_norm): LayerNorm((1024,), eps=1e-06, elementwise_affine=True)
      (head): Linear(in_features=1024, out_features=1000, bias=True)
    )
  )
  (model_ema): ModuleDict(
    (backbone): FSDPSwinTransformer(
      (patch_embed): PatchEmbed(
        (proj): Conv2d(3, 128, kernel_size=(4, 4), stride=(4, 4))
        (norm): LayerNorm((128,), eps=1e-06, elementwise_affine=True)
      )
      (pos_drop): Dropout(p=0.0, inplace=False)
      (layers): ModuleList(
        (0): FSDPBasicLayer(
          dim=128, input_resolution=(16, 16), depth=2
          (blocks): ModuleList(
            (0): SwinTransformerBlock(
              dim=128, input_resolution=(16, 16), num_heads=4, window_size=7, shift_size=0 mlp_ratio=4
              (norm1): LayerNorm((128,), eps=1e-06, elementwise_affine=True)
              (attn): WindowAttention(
                dim=128, window_size=(7, 7), num_heads=4
                (qkv): Linear(in_features=128, out_features=384, bias=True)
                (attn_drop): Dropout(p=0.0, inplace=False)
                (proj): Linear(in_features=128, out_features=128, bias=True)
                (proj_drop): Dropout(p=0.0, inplace=False)
                (softmax): Softmax(dim=-1)
              )
              (drop_path): Identity()
              (norm2): LayerNorm((128,), eps=1e-06, elementwise_affine=True)
              (mlp): Mlp(
                (fc1): Linear(in_features=128, out_features=512, bias=True)
                (act): GELU(approximate='none')
                (fc2): Linear(in_features=512, out_features=128, bias=True)
                (drop): Dropout(p=0.0, inplace=False)
              )
            )
            (1): SwinTransformerBlock(
              dim=128, input_resolution=(16, 16), num_heads=4, window_size=7, shift_size=3 mlp_ratio=4
              (norm1): LayerNorm((128,), eps=1e-06, elementwise_affine=True)
              (attn): WindowAttention(
                dim=128, window_size=(7, 7), num_heads=4
                (qkv): Linear(in_features=128, out_features=384, bias=True)
                (attn_drop): Dropout(p=0.0, inplace=False)
                (proj): Linear(in_features=128, out_features=128, bias=True)
                (proj_drop): Dropout(p=0.0, inplace=False)
                (softmax): Softmax(dim=-1)
              )
              (drop_path): DropPath(drop_prob=0.009)
              (norm2): LayerNorm((128,), eps=1e-06, elementwise_affine=True)
              (mlp): Mlp(
                (fc1): Linear(in_features=128, out_features=512, bias=True)
                (act): GELU(approximate='none')
                (fc2): Linear(in_features=512, out_features=128, bias=True)
                (drop): Dropout(p=0.0, inplace=False)
              )
            )
          )
          (downsample): PatchMerging(
            (reduction): Linear(in_features=512, out_features=256, bias=False)
            (norm): LayerNorm((512,), eps=1e-06, elementwise_affine=True)
          )
        )
        (1): FSDPBasicLayer(
          dim=256, input_resolution=(8, 8), depth=2
          (blocks): ModuleList(
            (0): SwinTransformerBlock(
              dim=256, input_resolution=(8, 8), num_heads=8, window_size=7, shift_size=0 mlp_ratio=4
              (norm1): LayerNorm((256,), eps=1e-06, elementwise_affine=True)
              (attn): WindowAttention(
                dim=256, window_size=(7, 7), num_heads=8
                (qkv): Linear(in_features=256, out_features=768, bias=True)
                (attn_drop): Dropout(p=0.0, inplace=False)
                (proj): Linear(in_features=256, out_features=256, bias=True)
                (proj_drop): Dropout(p=0.0, inplace=False)
                (softmax): Softmax(dim=-1)
              )
              (drop_path): DropPath(drop_prob=0.017)
              (norm2): LayerNorm((256,), eps=1e-06, elementwise_affine=True)
              (mlp): Mlp(
                (fc1): Linear(in_features=256, out_features=1024, bias=True)
                (act): GELU(approximate='none')
                (fc2): Linear(in_features=1024, out_features=256, bias=True)
                (drop): Dropout(p=0.0, inplace=False)
              )
            )
            (1): SwinTransformerBlock(
              dim=256, input_resolution=(8, 8), num_heads=8, window_size=7, shift_size=3 mlp_ratio=4
              (norm1): LayerNorm((256,), eps=1e-06, elementwise_affine=True)
              (attn): WindowAttention(
                dim=256, window_size=(7, 7), num_heads=8
                (qkv): Linear(in_features=256, out_features=768, bias=True)
                (attn_drop): Dropout(p=0.0, inplace=False)
                (proj): Linear(in_features=256, out_features=256, bias=True)
                (proj_drop): Dropout(p=0.0, inplace=False)
                (softmax): Softmax(dim=-1)
              )
              (drop_path): DropPath(drop_prob=0.026)
              (norm2): LayerNorm((256,), eps=1e-06, elementwise_affine=True)
              (mlp): Mlp(
                (fc1): Linear(in_features=256, out_features=1024, bias=True)
                (act): GELU(approximate='none')
                (fc2): Linear(in_features=1024, out_features=256, bias=True)
                (drop): Dropout(p=0.0, inplace=False)
              )
            )
          )
          (downsample): PatchMerging(
            (reduction): Linear(in_features=1024, out_features=512, bias=False)
            (norm): LayerNorm((1024,), eps=1e-06, elementwise_affine=True)
          )
        )
        (2): FSDPBasicLayer(
          dim=512, input_resolution=(4, 4), depth=18
          (blocks): ModuleList(
            (0): SwinTransformerBlock(
              dim=512, input_resolution=(4, 4), num_heads=16, window_size=4, shift_size=0 mlp_ratio=4
              (norm1): LayerNorm((512,), eps=1e-06, elementwise_affine=True)
              (attn): WindowAttention(
                dim=512, window_size=(4, 4), num_heads=16
                (qkv): Linear(in_features=512, out_features=1536, bias=True)
                (attn_drop): Dropout(p=0.0, inplace=False)
                (proj): Linear(in_features=512, out_features=512, bias=True)
                (proj_drop): Dropout(p=0.0, inplace=False)
                (softmax): Softmax(dim=-1)
              )
              (drop_path): DropPath(drop_prob=0.035)
              (norm2): LayerNorm((512,), eps=1e-06, elementwise_affine=True)
              (mlp): Mlp(
                (fc1): Linear(in_features=512, out_features=2048, bias=True)
                (act): GELU(approximate='none')
                (fc2): Linear(in_features=2048, out_features=512, bias=True)
                (drop): Dropout(p=0.0, inplace=False)
              )
            )
            (1): SwinTransformerBlock(
              dim=512, input_resolution=(4, 4), num_heads=16, window_size=4, shift_size=0 mlp_ratio=4
              (norm1): LayerNorm((512,), eps=1e-06, elementwise_affine=True)
              (attn): WindowAttention(
                dim=512, window_size=(4, 4), num_heads=16
                (qkv): Linear(in_features=512, out_features=1536, bias=True)
                (attn_drop): Dropout(p=0.0, inplace=False)
                (proj): Linear(in_features=512, out_features=512, bias=True)
                (proj_drop): Dropout(p=0.0, inplace=False)
                (softmax): Softmax(dim=-1)
              )
              (drop_path): DropPath(drop_prob=0.043)
              (norm2): LayerNorm((512,), eps=1e-06, elementwise_affine=True)
              (mlp): Mlp(
                (fc1): Linear(in_features=512, out_features=2048, bias=True)
                (act): GELU(approximate='none')
                (fc2): Linear(in_features=2048, out_features=512, bias=True)
                (drop): Dropout(p=0.0, inplace=False)
              )
            )
            (2): SwinTransformerBlock(
              dim=512, input_resolution=(4, 4), num_heads=16, window_size=4, shift_size=0 mlp_ratio=4
              (norm1): LayerNorm((512,), eps=1e-06, elementwise_affine=True)
              (attn): WindowAttention(
                dim=512, window_size=(4, 4), num_heads=16
                (qkv): Linear(in_features=512, out_features=1536, bias=True)
                (attn_drop): Dropout(p=0.0, inplace=False)
                (proj): Linear(in_features=512, out_features=512, bias=True)
                (proj_drop): Dropout(p=0.0, inplace=False)
                (softmax): Softmax(dim=-1)
              )
              (drop_path): DropPath(drop_prob=0.052)
              (norm2): LayerNorm((512,), eps=1e-06, elementwise_affine=True)
              (mlp): Mlp(
                (fc1): Linear(in_features=512, out_features=2048, bias=True)
                (act): GELU(approximate='none')
                (fc2): Linear(in_features=2048, out_features=512, bias=True)
                (drop): Dropout(p=0.0, inplace=False)
              )
            )
            (3): SwinTransformerBlock(
              dim=512, input_resolution=(4, 4), num_heads=16, window_size=4, shift_size=0 mlp_ratio=4
              (norm1): LayerNorm((512,), eps=1e-06, elementwise_affine=True)
              (attn): WindowAttention(
                dim=512, window_size=(4, 4), num_heads=16
                (qkv): Linear(in_features=512, out_features=1536, bias=True)
                (attn_drop): Dropout(p=0.0, inplace=False)
                (proj): Linear(in_features=512, out_features=512, bias=True)
                (proj_drop): Dropout(p=0.0, inplace=False)
                (softmax): Softmax(dim=-1)
              )
              (drop_path): DropPath(drop_prob=0.061)
              (norm2): LayerNorm((512,), eps=1e-06, elementwise_affine=True)
              (mlp): Mlp(
                (fc1): Linear(in_features=512, out_features=2048, bias=True)
                (act): GELU(approximate='none')
                (fc2): Linear(in_features=2048, out_features=512, bias=True)
                (drop): Dropout(p=0.0, inplace=False)
              )
            )
            (4): SwinTransformerBlock(
              dim=512, input_resolution=(4, 4), num_heads=16, window_size=4, shift_size=0 mlp_ratio=4
              (norm1): LayerNorm((512,), eps=1e-06, elementwise_affine=True)
              (attn): WindowAttention(
                dim=512, window_size=(4, 4), num_heads=16
                (qkv): Linear(in_features=512, out_features=1536, bias=True)
                (attn_drop): Dropout(p=0.0, inplace=False)
                (proj): Linear(in_features=512, out_features=512, bias=True)
                (proj_drop): Dropout(p=0.0, inplace=False)
                (softmax): Softmax(dim=-1)
              )
              (drop_path): DropPath(drop_prob=0.070)
              (norm2): LayerNorm((512,), eps=1e-06, elementwise_affine=True)
              (mlp): Mlp(
                (fc1): Linear(in_features=512, out_features=2048, bias=True)
                (act): GELU(approximate='none')
                (fc2): Linear(in_features=2048, out_features=512, bias=True)
                (drop): Dropout(p=0.0, inplace=False)
              )
            )
            (5): SwinTransformerBlock(
              dim=512, input_resolution=(4, 4), num_heads=16, window_size=4, shift_size=0 mlp_ratio=4
              (norm1): LayerNorm((512,), eps=1e-06, elementwise_affine=True)
              (attn): WindowAttention(
                dim=512, window_size=(4, 4), num_heads=16
                (qkv): Linear(in_features=512, out_features=1536, bias=True)
                (attn_drop): Dropout(p=0.0, inplace=False)
                (proj): Linear(in_features=512, out_features=512, bias=True)
                (proj_drop): Dropout(p=0.0, inplace=False)
                (softmax): Softmax(dim=-1)
              )
              (drop_path): DropPath(drop_prob=0.078)
              (norm2): LayerNorm((512,), eps=1e-06, elementwise_affine=True)
              (mlp): Mlp(
                (fc1): Linear(in_features=512, out_features=2048, bias=True)
                (act): GELU(approximate='none')
                (fc2): Linear(in_features=2048, out_features=512, bias=True)
                (drop): Dropout(p=0.0, inplace=False)
              )
            )
            (6): SwinTransformerBlock(
              dim=512, input_resolution=(4, 4), num_heads=16, window_size=4, shift_size=0 mlp_ratio=4
              (norm1): LayerNorm((512,), eps=1e-06, elementwise_affine=True)
              (attn): WindowAttention(
                dim=512, window_size=(4, 4), num_heads=16
                (qkv): Linear(in_features=512, out_features=1536, bias=True)
                (attn_drop): Dropout(p=0.0, inplace=False)
                (proj): Linear(in_features=512, out_features=512, bias=True)
                (proj_drop): Dropout(p=0.0, inplace=False)
                (softmax): Softmax(dim=-1)
              )
              (drop_path): DropPath(drop_prob=0.087)
              (norm2): LayerNorm((512,), eps=1e-06, elementwise_affine=True)
              (mlp): Mlp(
                (fc1): Linear(in_features=512, out_features=2048, bias=True)
                (act): GELU(approximate='none')
                (fc2): Linear(in_features=2048, out_features=512, bias=True)
                (drop): Dropout(p=0.0, inplace=False)
              )
            )
            (7): SwinTransformerBlock(
              dim=512, input_resolution=(4, 4), num_heads=16, window_size=4, shift_size=0 mlp_ratio=4
              (norm1): LayerNorm((512,), eps=1e-06, elementwise_affine=True)
              (attn): WindowAttention(
                dim=512, window_size=(4, 4), num_heads=16
                (qkv): Linear(in_features=512, out_features=1536, bias=True)
                (attn_drop): Dropout(p=0.0, inplace=False)
                (proj): Linear(in_features=512, out_features=512, bias=True)
                (proj_drop): Dropout(p=0.0, inplace=False)
                (softmax): Softmax(dim=-1)
              )
              (drop_path): DropPath(drop_prob=0.096)
              (norm2): LayerNorm((512,), eps=1e-06, elementwise_affine=True)
              (mlp): Mlp(
                (fc1): Linear(in_features=512, out_features=2048, bias=True)
                (act): GELU(approximate='none')
                (fc2): Linear(in_features=2048, out_features=512, bias=True)
                (drop): Dropout(p=0.0, inplace=False)
              )
            )
            (8): SwinTransformerBlock(
              dim=512, input_resolution=(4, 4), num_heads=16, window_size=4, shift_size=0 mlp_ratio=4
              (norm1): LayerNorm((512,), eps=1e-06, elementwise_affine=True)
              (attn): WindowAttention(
                dim=512, window_size=(4, 4), num_heads=16
                (qkv): Linear(in_features=512, out_features=1536, bias=True)
                (attn_drop): Dropout(p=0.0, inplace=False)
                (proj): Linear(in_features=512, out_features=512, bias=True)
                (proj_drop): Dropout(p=0.0, inplace=False)
                (softmax): Softmax(dim=-1)
              )
              (drop_path): DropPath(drop_prob=0.104)
              (norm2): LayerNorm((512,), eps=1e-06, elementwise_affine=True)
              (mlp): Mlp(
                (fc1): Linear(in_features=512, out_features=2048, bias=True)
                (act): GELU(approximate='none')
                (fc2): Linear(in_features=2048, out_features=512, bias=True)
                (drop): Dropout(p=0.0, inplace=False)
              )
            )
            (9): SwinTransformerBlock(
              dim=512, input_resolution=(4, 4), num_heads=16, window_size=4, shift_size=0 mlp_ratio=4
              (norm1): LayerNorm((512,), eps=1e-06, elementwise_affine=True)
              (attn): WindowAttention(
                dim=512, window_size=(4, 4), num_heads=16
                (qkv): Linear(in_features=512, out_features=1536, bias=True)
                (attn_drop): Dropout(p=0.0, inplace=False)
                (proj): Linear(in_features=512, out_features=512, bias=True)
                (proj_drop): Dropout(p=0.0, inplace=False)
                (softmax): Softmax(dim=-1)
              )
              (drop_path): DropPath(drop_prob=0.113)
              (norm2): LayerNorm((512,), eps=1e-06, elementwise_affine=True)
              (mlp): Mlp(
                (fc1): Linear(in_features=512, out_features=2048, bias=True)
                (act): GELU(approximate='none')
                (fc2): Linear(in_features=2048, out_features=512, bias=True)
                (drop): Dropout(p=0.0, inplace=False)
              )
            )
            (10): SwinTransformerBlock(
              dim=512, input_resolution=(4, 4), num_heads=16, window_size=4, shift_size=0 mlp_ratio=4
              (norm1): LayerNorm((512,), eps=1e-06, elementwise_affine=True)
              (attn): WindowAttention(
                dim=512, window_size=(4, 4), num_heads=16
                (qkv): Linear(in_features=512, out_features=1536, bias=True)
                (attn_drop): Dropout(p=0.0, inplace=False)
                (proj): Linear(in_features=512, out_features=512, bias=True)
                (proj_drop): Dropout(p=0.0, inplace=False)
                (softmax): Softmax(dim=-1)
              )
              (drop_path): DropPath(drop_prob=0.122)
              (norm2): LayerNorm((512,), eps=1e-06, elementwise_affine=True)
              (mlp): Mlp(
                (fc1): Linear(in_features=512, out_features=2048, bias=True)
                (act): GELU(approximate='none')
                (fc2): Linear(in_features=2048, out_features=512, bias=True)
                (drop): Dropout(p=0.0, inplace=False)
              )
            )
            (11): SwinTransformerBlock(
              dim=512, input_resolution=(4, 4), num_heads=16, window_size=4, shift_size=0 mlp_ratio=4
              (norm1): LayerNorm((512,), eps=1e-06, elementwise_affine=True)
              (attn): WindowAttention(
                dim=512, window_size=(4, 4), num_heads=16
                (qkv): Linear(in_features=512, out_features=1536, bias=True)
                (attn_drop): Dropout(p=0.0, inplace=False)
                (proj): Linear(in_features=512, out_features=512, bias=True)
                (proj_drop): Dropout(p=0.0, inplace=False)
                (softmax): Softmax(dim=-1)
              )
              (drop_path): DropPath(drop_prob=0.130)
              (norm2): LayerNorm((512,), eps=1e-06, elementwise_affine=True)
              (mlp): Mlp(
                (fc1): Linear(in_features=512, out_features=2048, bias=True)
                (act): GELU(approximate='none')
                (fc2): Linear(in_features=2048, out_features=512, bias=True)
                (drop): Dropout(p=0.0, inplace=False)
              )
            )
            (12): SwinTransformerBlock(
              dim=512, input_resolution=(4, 4), num_heads=16, window_size=4, shift_size=0 mlp_ratio=4
              (norm1): LayerNorm((512,), eps=1e-06, elementwise_affine=True)
              (attn): WindowAttention(
                dim=512, window_size=(4, 4), num_heads=16
                (qkv): Linear(in_features=512, out_features=1536, bias=True)
                (attn_drop): Dropout(p=0.0, inplace=False)
                (proj): Linear(in_features=512, out_features=512, bias=True)
                (proj_drop): Dropout(p=0.0, inplace=False)
                (softmax): Softmax(dim=-1)
              )
              (drop_path): DropPath(drop_prob=0.139)
              (norm2): LayerNorm((512,), eps=1e-06, elementwise_affine=True)
              (mlp): Mlp(
                (fc1): Linear(in_features=512, out_features=2048, bias=True)
                (act): GELU(approximate='none')
                (fc2): Linear(in_features=2048, out_features=512, bias=True)
                (drop): Dropout(p=0.0, inplace=False)
              )
            )
            (13): SwinTransformerBlock(
              dim=512, input_resolution=(4, 4), num_heads=16, window_size=4, shift_size=0 mlp_ratio=4
              (norm1): LayerNorm((512,), eps=1e-06, elementwise_affine=True)
              (attn): WindowAttention(
                dim=512, window_size=(4, 4), num_heads=16
                (qkv): Linear(in_features=512, out_features=1536, bias=True)
                (attn_drop): Dropout(p=0.0, inplace=False)
                (proj): Linear(in_features=512, out_features=512, bias=True)
                (proj_drop): Dropout(p=0.0, inplace=False)
                (softmax): Softmax(dim=-1)
              )
              (drop_path): DropPath(drop_prob=0.148)
              (norm2): LayerNorm((512,), eps=1e-06, elementwise_affine=True)
              (mlp): Mlp(
                (fc1): Linear(in_features=512, out_features=2048, bias=True)
                (act): GELU(approximate='none')
                (fc2): Linear(in_features=2048, out_features=512, bias=True)
                (drop): Dropout(p=0.0, inplace=False)
              )
            )
            (14): SwinTransformerBlock(
              dim=512, input_resolution=(4, 4), num_heads=16, window_size=4, shift_size=0 mlp_ratio=4
              (norm1): LayerNorm((512,), eps=1e-06, elementwise_affine=True)
              (attn): WindowAttention(
                dim=512, window_size=(4, 4), num_heads=16
                (qkv): Linear(in_features=512, out_features=1536, bias=True)
                (attn_drop): Dropout(p=0.0, inplace=False)
                (proj): Linear(in_features=512, out_features=512, bias=True)
                (proj_drop): Dropout(p=0.0, inplace=False)
                (softmax): Softmax(dim=-1)
              )
              (drop_path): DropPath(drop_prob=0.157)
              (norm2): LayerNorm((512,), eps=1e-06, elementwise_affine=True)
              (mlp): Mlp(
                (fc1): Linear(in_features=512, out_features=2048, bias=True)
                (act): GELU(approximate='none')
                (fc2): Linear(in_features=2048, out_features=512, bias=True)
                (drop): Dropout(p=0.0, inplace=False)
              )
            )
            (15): SwinTransformerBlock(
              dim=512, input_resolution=(4, 4), num_heads=16, window_size=4, shift_size=0 mlp_ratio=4
              (norm1): LayerNorm((512,), eps=1e-06, elementwise_affine=True)
              (attn): WindowAttention(
                dim=512, window_size=(4, 4), num_heads=16
                (qkv): Linear(in_features=512, out_features=1536, bias=True)
                (attn_drop): Dropout(p=0.0, inplace=False)
                (proj): Linear(in_features=512, out_features=512, bias=True)
                (proj_drop): Dropout(p=0.0, inplace=False)
                (softmax): Softmax(dim=-1)
              )
              (drop_path): DropPath(drop_prob=0.165)
              (norm2): LayerNorm((512,), eps=1e-06, elementwise_affine=True)
              (mlp): Mlp(
                (fc1): Linear(in_features=512, out_features=2048, bias=True)
                (act): GELU(approximate='none')
                (fc2): Linear(in_features=2048, out_features=512, bias=True)
                (drop): Dropout(p=0.0, inplace=False)
              )
            )
            (16): SwinTransformerBlock(
              dim=512, input_resolution=(4, 4), num_heads=16, window_size=4, shift_size=0 mlp_ratio=4
              (norm1): LayerNorm((512,), eps=1e-06, elementwise_affine=True)
              (attn): WindowAttention(
                dim=512, window_size=(4, 4), num_heads=16
                (qkv): Linear(in_features=512, out_features=1536, bias=True)
                (attn_drop): Dropout(p=0.0, inplace=False)
                (proj): Linear(in_features=512, out_features=512, bias=True)
                (proj_drop): Dropout(p=0.0, inplace=False)
                (softmax): Softmax(dim=-1)
              )
              (drop_path): DropPath(drop_prob=0.174)
              (norm2): LayerNorm((512,), eps=1e-06, elementwise_affine=True)
              (mlp): Mlp(
                (fc1): Linear(in_features=512, out_features=2048, bias=True)
                (act): GELU(approximate='none')
                (fc2): Linear(in_features=2048, out_features=512, bias=True)
                (drop): Dropout(p=0.0, inplace=False)
              )
            )
            (17): SwinTransformerBlock(
              dim=512, input_resolution=(4, 4), num_heads=16, window_size=4, shift_size=0 mlp_ratio=4
              (norm1): LayerNorm((512,), eps=1e-06, elementwise_affine=True)
              (attn): WindowAttention(
                dim=512, window_size=(4, 4), num_heads=16
                (qkv): Linear(in_features=512, out_features=1536, bias=True)
                (attn_drop): Dropout(p=0.0, inplace=False)
                (proj): Linear(in_features=512, out_features=512, bias=True)
                (proj_drop): Dropout(p=0.0, inplace=False)
                (softmax): Softmax(dim=-1)
              )
              (drop_path): DropPath(drop_prob=0.183)
              (norm2): LayerNorm((512,), eps=1e-06, elementwise_affine=True)
              (mlp): Mlp(
                (fc1): Linear(in_features=512, out_features=2048, bias=True)
                (act): GELU(approximate='none')
                (fc2): Linear(in_features=2048, out_features=512, bias=True)
                (drop): Dropout(p=0.0, inplace=False)
              )
            )
          )
          (downsample): PatchMerging(
            (reduction): Linear(in_features=2048, out_features=1024, bias=False)
            (norm): LayerNorm((2048,), eps=1e-06, elementwise_affine=True)
          )
        )
        (3): FSDPBasicLayer(
          dim=1024, input_resolution=(2, 2), depth=2
          (blocks): ModuleList(
            (0): SwinTransformerBlock(
              dim=1024, input_resolution=(2, 2), num_heads=32, window_size=2, shift_size=0 mlp_ratio=4
              (norm1): LayerNorm((1024,), eps=1e-06, elementwise_affine=True)
              (attn): WindowAttention(
                dim=1024, window_size=(2, 2), num_heads=32
                (qkv): Linear(in_features=1024, out_features=3072, bias=True)
                (attn_drop): Dropout(p=0.0, inplace=False)
                (proj): Linear(in_features=1024, out_features=1024, bias=True)
                (proj_drop): Dropout(p=0.0, inplace=False)
                (softmax): Softmax(dim=-1)
              )
              (drop_path): DropPath(drop_prob=0.191)
              (norm2): LayerNorm((1024,), eps=1e-06, elementwise_affine=True)
              (mlp): Mlp(
                (fc1): Linear(in_features=1024, out_features=4096, bias=True)
                (act): GELU(approximate='none')
                (fc2): Linear(in_features=4096, out_features=1024, bias=True)
                (drop): Dropout(p=0.0, inplace=False)
              )
            )
            (1): SwinTransformerBlock(
              dim=1024, input_resolution=(2, 2), num_heads=32, window_size=2, shift_size=0 mlp_ratio=4
              (norm1): LayerNorm((1024,), eps=1e-06, elementwise_affine=True)
              (attn): WindowAttention(
                dim=1024, window_size=(2, 2), num_heads=32
                (qkv): Linear(in_features=1024, out_features=3072, bias=True)
                (attn_drop): Dropout(p=0.0, inplace=False)
                (proj): Linear(in_features=1024, out_features=1024, bias=True)
                (proj_drop): Dropout(p=0.0, inplace=False)
                (softmax): Softmax(dim=-1)
              )
              (drop_path): DropPath(drop_prob=0.200)
              (norm2): LayerNorm((1024,), eps=1e-06, elementwise_affine=True)
              (mlp): Mlp(
                (fc1): Linear(in_features=1024, out_features=4096, bias=True)
                (act): GELU(approximate='none')
                (fc2): Linear(in_features=4096, out_features=1024, bias=True)
                (drop): Dropout(p=0.0, inplace=False)
              )
            )
          )
        )
      )
      (norm): LayerNorm((1024,), eps=1e-06, elementwise_affine=True)
      (avgpool): AdaptiveAvgPool1d(output_size=1)
      (proj_cls): Linear(in_features=1024, out_features=1024, bias=True)
      (cls_norm): LayerNorm((1024,), eps=1e-06, elementwise_affine=True)
      (head): Linear(in_features=1024, out_features=1000, bias=True)
    )
  )
  (teacher): ModuleDict(
    (backbone): FSDPDinoVisionTransformer(
      (patch_embed): PatchEmbed(
        (proj): Conv2d(3, 1024, kernel_size=(16, 16), stride=(16, 16))
        (norm): Identity()
      )
      (rope_embed): RopePositionEmbedding()
      (blocks): ModuleList(
        (0-23): 24 x FSDPSelfAttentionBlock(
          (norm1): LayerNorm((1024,), eps=1e-05, elementwise_affine=True)
          (attn): SelfAttention(
            (qkv): LinearKMaskedBias(in_features=1024, out_features=3072, bias=True)
            (attn_drop): Dropout(p=0.0, inplace=False)
            (proj): Linear(in_features=1024, out_features=1024, bias=True)
            (proj_drop): Dropout(p=0.0, inplace=False)
          )
          (ls1): LayerScale()
          (norm2): LayerNorm((1024,), eps=1e-05, elementwise_affine=True)
          (mlp): Mlp(
            (fc1): Linear(in_features=1024, out_features=4096, bias=True)
            (act): GELU(approximate='none')
            (fc2): Linear(in_features=4096, out_features=1024, bias=True)
            (drop): Dropout(p=0.0, inplace=False)
          )
          (ls2): LayerScale()
        )
      )
      (norm): LayerNorm((1024,), eps=1e-05, elementwise_affine=True)
      (head): Identity()
    )
  )
  (koleo_loss): KoLeoLoss(
    (pdist): PairwiseDistance()
  )
)
I20260526 20:30:37 3000143 dinov3 param_groups.py:168] masked_embed: lr_multiplier: 1.0, wd_multiplier: 1.0
I20260526 20:30:37 3000143 dinov3 param_groups.py:168] patch_embed.proj.weight: lr_multiplier: 0.2, wd_multiplier: 1.0
I20260526 20:30:37 3000143 dinov3 param_groups.py:168] patch_embed.proj.bias: lr_multiplier: 0.2, wd_multiplier: 0.0
…
